…
thon2.7/site-packages/torch/nn/_reduction.py:43: UserWarning: size_average and reduce args will be deprecated, please use reduction='sum' instead.
  warnings.warn(warning.format(ret))
Namespace(anneal_iter=40000, anneal_rate=0.9, batch_size=16, beta=0.0, clip_norm=50.0, depthG=3, depthT=20, epoch=20, hidden_size=200, kl_anneal_iter=2000, latent_size=56, load_epoch=0, lr=0.001, max_beta=1.0, print_iter=50, save_dir='./pre_model', step_beta=0.002, train='../data/l1000/max40/processed', vocab='../data/l1000/max40/train_max40_vocab.txt', warmup=40000)
JTNNVAE(
  (jtnn): JTNNEncoder(
    (embedding): Embedding(378, 200)
    (outputNN): Sequential(
      (0): Linear(in_features=400, out_features=200, bias=True)
      (1): ReLU()
    )
    (GRU): GraphGRU(
      (W_z): Linear(in_features=400, out_features=200, bias=True)
      (W_r): Linear(in_features=200, out_features=200, bias=False)
      (U_r): Linear(in_features=200, out_features=200, bias=True)
      (W_h): Linear(in_features=400, out_features=200, bias=True)
    )
  )
  (decoder): JTNNDecoder(
    (embedding): Embedding(378, 200)
    (W_z): Linear(in_features=400, out_features=200, bias=True)
    (U_r): Linear(in_features=200, out_features=200, bias=False)
    (W_r): Linear(in_features=200, out_features=200, bias=True)
    (W_h): Linear(in_features=400, out_features=200, bias=True)
    (W): Linear(in_features=228, out_features=200, bias=True)
    (U): Linear(in_features=228, out_features=200, bias=True)
    (U_i): Linear(in_features=400, out_features=200, bias=True)
    (W_o): Linear(in_features=200, out_features=378, bias=True)
    (U_o): Linear(in_features=200, out_features=1, bias=True)
    (pred_loss): CrossEntropyLoss()
    (stop_loss): BCEWithLogitsLoss()
  )
  (jtmpn): JTMPN(
    (W_i): Linear(in_features=40, out_features=200, bias=False)
    (W_h): Linear(in_features=200, out_features=200, bias=False)
    (W_o): Linear(in_features=235, out_features=200, bias=True)
  )
  (mpn): MPN(
    (W_i): Linear(in_features=50, out_features=200, bias=False)
    (W_h): Linear(in_features=200, out_features=200, bias=False)
    (W_o): Linear(in_features=239, out_features=200, bias=True)
  )
  (A_assm): Linear(in_features=28, out_features=200, bias=False)
  (assm_loss): CrossEntropyLoss()
  (T_mean): Linear(in_features=200, out_features=28, bias=True)
  (T_var): Linear(in_features=200, out_features=28, bias=True)
  (G_mean): Linear(in_features=200, out_features=28, bias=True)
  (G_var): Linear(in_features=200, out_features=28, bias=True)
)
Model #Params: 1181K
...Finish Making Plot Folder...
EPOCH: 1 | TIME: 2020-04-03 11:45:34.376675 
/home/shinhwan/anaconda2/envs/icml18_l1000/lib/python2.7/site-packages/torch/nn/functional.py:1351: UserWarning: nn.functional.sigmoid is deprecated. Use torch.sigmoid instead.
  warnings.warn("nn.functional.sigmoid is deprecated. Use torch.sigmoid instead.")
…
